…
│                     │ 128)              │            │
├─────────────────────┼───────────────────┼────────────┼
│ batch_normalizatio… │ (None, 16, 8,     │        512 │
│ (BatchNormalizatio… │ 128)              │            │
├─────────────────────┼───────────────────┼────────────┼
│ add_3 (Add)         │ (None, 16, 8,     │          0 │
│                     │ 128)              │            │
├─────────────────────┼───────────────────┼────────────┼
│ re_lu_8 (ReLU)      │ (None, 16, 8,     │          0 │
│                     │ 128)              │            │
├─────────────────────┼───────────────────┼────────────┼
│ conv2d_10 (Conv2D)  │ (None, 8, 4, 256) │    294,912 │
├─────────────────────┼───────────────────┼────────────┼
│ batch_normalizatio… │ (None, 8, 4, 256) │      1,024 │
│ (BatchNormalizatio… │                   │            │
├─────────────────────┼───────────────────┼────────────┼
│ re_lu_9 (ReLU)      │ (None, 8, 4, 256) │          0 │
├─────────────────────┼───────────────────┼────────────┼
│ conv2d_11 (Conv2D)  │ (None, 8, 4, 256) │    589,824 │
├─────────────────────┼───────────────────┼────────────┼
│ conv2d_12 (Conv2D)  │ (None, 8, 4, 256) │     32,768 │
├─────────────────────┼───────────────────┼────────────┼
│ batch_normalizatio… │ (None, 8, 4, 256) │      1,024 │
│ (BatchNormalizatio… │                   │            │
├─────────────────────┼───────────────────┼────────────┼
│ batch_normalizatio… │ (None, 8, 4, 256) │      1,024 │
│ (BatchNormalizatio… │                   │            │
├─────────────────────┼───────────────────┼────────────┼
│ add_4 (Add)         │ (None, 8, 4, 256) │          0 │
│                     │                   │            │
├─────────────────────┼───────────────────┼────────────┼
│ re_lu_10 (ReLU)     │ (None, 8, 4, 256) │          0 │
├─────────────────────┼───────────────────┼────────────┼
│ conv2d_13 (Conv2D)  │ (None, 8, 4, 256) │    589,824 │
├─────────────────────┼───────────────────┼────────────┼
│ batch_normalizatio… │ (None, 8, 4, 256) │      1,024 │
│ (BatchNormalizatio… │                   │            │
├─────────────────────┼───────────────────┼────────────┼
│ re_lu_11 (ReLU)     │ (None, 8, 4, 256) │          0 │
├─────────────────────┼───────────────────┼────────────┼
│ conv2d_14 (Conv2D)  │ (None, 8, 4, 256) │    589,824 │
├─────────────────────┼───────────────────┼────────────┼
│ batch_normalizatio… │ (None, 8, 4, 256) │      1,024 │
│ (BatchNormalizatio… │                   │            │
├─────────────────────┼───────────────────┼────────────┼
│ add_5 (Add)         │ (None, 8, 4, 256) │          0 │
│                     │                   │            │
├─────────────────────┼───────────────────┼────────────┼
│ re_lu_12 (ReLU)     │ (None, 8, 4, 256) │          0 │
├─────────────────────┼───────────────────┼────────────┼
│ conv2d_15 (Conv2D)  │ (None, 4, 2, 512) │  1,179,648 │
├─────────────────────┼───────────────────┼────────────┼
│ batch_normalizatio… │ (None, 4, 2, 512) │      2,048 │
│ (BatchNormalizatio… │                   │            │
├─────────────────────┼───────────────────┼────────────┼
│ re_lu_13 (ReLU)     │ (None, 4, 2, 512) │          0 │
├─────────────────────┼───────────────────┼────────────┼
│ conv2d_16 (Conv2D)  │ (None, 4, 2, 512) │  2,359,296 │
├─────────────────────┼───────────────────┼────────────┼
│ conv2d_17 (Conv2D)  │ (None, 4, 2, 512) │    131,072 │
├─────────────────────┼───────────────────┼────────────┼
│ batch_normalizatio… │ (None, 4, 2, 512) │      2,048 │
│ (BatchNormalizatio… │                   │            │
├─────────────────────┼───────────────────┼────────────┼
│ batch_normalizatio… │ (None, 4, 2, 512) │      2,048 │
│ (BatchNormalizatio… │                   │            │
├─────────────────────┼───────────────────┼────────────┼
│ add_6 (Add)         │ (None, 4, 2, 512) │          0 │
│                     │                   │            │
├─────────────────────┼───────────────────┼────────────┼
│ re_lu_14 (ReLU)     │ (None, 4, 2, 512) │          0 │
├─────────────────────┼───────────────────┼────────────┼
│ conv2d_18 (Conv2D)  │ (None, 4, 2, 512) │  2,359,296 │
├─────────────────────┼───────────────────┼────────────┼
│ batch_normalizatio… │ (None, 4, 2, 512) │      2,048 │
│ (BatchNormalizatio… │                   │            │
├─────────────────────┼───────────────────┼────────────┼
│ re_lu_15 (ReLU)     │ (None, 4, 2, 512) │          0 │
├─────────────────────┼───────────────────┼────────────┼
│ conv2d_19 (Conv2D)  │ (None, 4, 2, 512) │  2,359,296 │
├─────────────────────┼───────────────────┼────────────┼
│ batch_normalizatio… │ (None, 4, 2, 512) │      2,048 │
│ (BatchNormalizatio… │                   │            │
├─────────────────────┼───────────────────┼────────────┼
│ add_7 (Add)         │ (None, 4, 2, 512) │          0 │
│                     │                   │            │
├─────────────────────┼───────────────────┼────────────┼
│ re_lu_16 (ReLU)     │ (None, 4, 2, 512) │          0 │
├─────────────────────┼───────────────────┼────────────┼
│ global_average_poo… │ (None, 512)       │          0 │
│ (GlobalAveragePool… │                   │            │
├─────────────────────┼───────────────────┼────────────┼
│ prediction (Dense)  │ (None, 2)         │      1,026 │
└─────────────────────┴───────────────────┴────────────┴
 Total params: 11,180,866 (42.65 MB)
 Trainable params: 11,171,266 (42.61 MB)
 Non-trainable params: 9,600 (37.50 KB)
Input shape: (None, 128, 63, 1)
Layer 0: mel_spectrogram, Type: <class 'keras.src.layers.core.input_layer.InputLayer'>, Config: N/A
Layer 1: conv2d, Type: <class 'keras.src.layers.convolutional.conv2d.Conv2D'>, Config: linear
…
